{
  "layers" : [
    {
      "bottom" : "image",
      "alpha" : 0.28988990187644958,
      "operation" : 3,
      "weights" : {

      },
      "fused_relu" : 0,
      "debug_info" : "",
      "top" : "image__fix__underflow_____conv_0",
      "type" : "elementwise",
      "name" : "conv_0__fix__underflow___",
      "beta" : 0
    },
    {
      "pad_r" : 0,
      "fused_relu" : 1,
      "fused_tanh" : 0,
      "debug_info" : "",
      "pad_fill_mode" : 0,
      "pad_b" : 0,
      "pad_l" : 0,
      "top" : "conv_0_relu_output_relu",
      "blob_weights" : 3,
      "K" : 3,
      "blob_biases" : 1,
      "stride_x" : 2,
      "name" : "conv_0",
      "has_batch_norm" : 0,
      "type" : "convolution",
      "n_groups" : 1,
      "pad_t" : 0,
      "stride_y" : 2,
      "has_biases" : 1,
      "C" : 16,
      "bottom" : "image__fix__underflow_____conv_0",
      "weights" : {

      },
      "Nx" : 3,
      "pad_mode" : 1,
      "pad_value" : 0,
      "Ny" : 3,
      "n_parallel" : 1
    },
    {
      "alpha" : -1,
      "bottom" : "conv_0_relu_output_relu",
      "weights" : {

      },
      "mode" : 6,
      "debug_info" : "conv_0_relu__neg__",
      "top" : "conv_0_relu_output_relu_neg",
      "type" : "activation",
      "name" : "conv_0_relu__neg__",
      "beta" : 0
    },
    {
      "bottom" : "conv_0_relu_output_relu_neg",
      "alpha" : -6,
      "operation" : 25,
      "weights" : {

      },
      "fused_relu" : 0,
      "debug_info" : "conv_0_relu__clip__",
      "top" : "conv_0_relu_output_relu_clip",
      "type" : "elementwise",
      "name" : "conv_0_relu__clip__",
      "beta" : 0
    },
    {
      "alpha" : -1,
      "bottom" : "conv_0_relu_output_relu_clip",
      "weights" : {

      },
      "mode" : 6,
      "debug_info" : "conv_0_relu_neg2",
      "top" : "conv_0_relu_output",
      "type" : "activation",
      "name" : "conv_0_relu_neg2",
      "beta" : 0
    },
    {
      "pad_r" : 0,
      "fused_relu" : 1,
      "fused_tanh" : 0,
      "debug_info" : "conv_dw_1",
      "pad_fill_mode" : 0,
      "pad_b" : 0,
      "pad_l" : 0,
      "top" : "conv_dw_1_relu_output_relu",
      "blob_weights" : 7,
      "K" : 16,
      "blob_biases" : 5,
      "name" : "conv_dw_1",
      "has_batch_norm" : 0,
      "type" : "convolution",
      "n_groups" : 16,
      "pad_t" : 0,
      "has_biases" : 1,
      "C" : 16,
      "bottom" : "conv_0_relu_output",
      "weights" : {

      },
      "Nx" : 3,
      "pad_mode" : 1,
      "pad_value" : 0,
      "Ny" : 3,
      "n_parallel" : 1
    },
    {
      "alpha" : -1,
      "bottom" : "conv_dw_1_relu_output_relu",
      "weights" : {

      },
      "mode" : 6,
      "debug_info" : "conv_dw_1_relu__neg__",
      "top" : "conv_dw_1_relu_output_relu_neg",
      "type" : "activation",
      "name" : "conv_dw_1_relu__neg__",
      "beta" : 0
    },
    {
      "bottom" : "conv_dw_1_relu_output_relu_neg",
      "alpha" : -6,
      "operation" : 25,
      "weights" : {

      },
      "fused_relu" : 0,
      "debug_info" : "conv_dw_1_relu__clip__",
      "top" : "conv_dw_1_relu_output_relu_clip",
      "type" : "elementwise",
      "name" : "conv_dw_1_relu__clip__",
      "beta" : 0
    },
    {
      "alpha" : -1,
      "bottom" : "conv_dw_1_relu_output_relu_clip",
      "weights" : {

      },
      "mode" : 6,
      "debug_info" : "conv_dw_1_relu_neg2",
      "top" : "conv_dw_1_relu_output",
      "type" : "activation",
      "name" : "conv_dw_1_relu_neg2",
      "beta" : 0
    },
    {
      "pad_r" : 0,
      "fused_relu" : 1,
      "fused_tanh" : 0,
      "debug_info" : "conv_pw_1",
      "pad_fill_mode" : 0,
      "pad_b" : 0,
      "pad_l" : 0,
      "top" : "conv_pw_1_relu_output_relu",
      "blob_weights" : 11,
      "K" : 16,
      "blob_biases" : 9,
      "name" : "conv_pw_1",
      "has_batch_norm" : 0,
      "type" : "convolution",
      "n_groups" : 1,
      "pad_t" : 0,
      "has_biases" : 1,
      "C" : 32,
      "bottom" : "conv_dw_1_relu_output",
      "weights" : {

      },
      "Nx" : 1,
      "pad_mode" : 1,
      "pad_value" : 0,
      "Ny" : 1,
      "n_parallel" : 1
    },
    {
      "alpha" : -1,
      "bottom" : "conv_pw_1_relu_output_relu",
      "weights" : {

      },
      "mode" : 6,
      "debug_info" : "conv_pw_1_relu__neg__",
      "top" : "conv_pw_1_relu_output_relu_neg",
      "type" : "activation",
      "name" : "conv_pw_1_relu__neg__",
      "beta" : 0
    },
    {
      "bottom" : "conv_pw_1_relu_output_relu_neg",
      "alpha" : -6,
      "operation" : 25,
      "weights" : {

      },
      "fused_relu" : 0,
      "debug_info" : "conv_pw_1_relu__clip__",
      "top" : "conv_pw_1_relu_output_relu_clip",
      "type" : "elementwise",
      "name" : "conv_pw_1_relu__clip__",
      "beta" : 0
    },
    {
      "alpha" : -1,
      "bottom" : "conv_pw_1_relu_output_relu_clip",
      "weights" : {

      },
      "mode" : 6,
      "debug_info" : "conv_pw_1_relu_neg2",
      "top" : "conv_pw_1_relu_output",
      "type" : "activation",
      "name" : "conv_pw_1_relu_neg2",
      "beta" : 0
    },
    {
      "pad_r" : 0,
      "fused_relu" : 1,
      "fused_tanh" : 0,
      "debug_info" : "conv_dw_2",
      "pad_fill_mode" : 0,
      "pad_b" : 0,
      "pad_l" : 0,
      "top" : "conv_dw_2_relu_output_relu",
      "blob_weights" : 15,
      "K" : 32,
      "blob_biases" : 13,
      "stride_x" : 2,
      "name" : "conv_dw_2",
      "has_batch_norm" : 0,
      "type" : "convolution",
      "n_groups" : 32,
      "pad_t" : 0,
      "stride_y" : 2,
      "has_biases" : 1,
      "C" : 32,
      "bottom" : "conv_pw_1_relu_output",
      "weights" : {

      },
      "Nx" : 3,
      "pad_mode" : 1,
      "pad_value" : 0,
      "Ny" : 3,
      "n_parallel" : 1
    },
    {
      "alpha" : -1,
      "bottom" : "conv_dw_2_relu_output_relu",
      "weights" : {

      },
      "mode" : 6,
      "debug_info" : "conv_dw_2_relu__neg__",
      "top" : "conv_dw_2_relu_output_relu_neg",
      "type" : "activation",
      "name" : "conv_dw_2_relu__neg__",
      "beta" : 0
    },
    {
      "bottom" : "conv_dw_2_relu_output_relu_neg",
      "alpha" : -6,
      "operation" : 25,
      "weights" : {

      },
      "fused_relu" : 0,
      "debug_info" : "conv_dw_2_relu__clip__",
      "top" : "conv_dw_2_relu_output_relu_clip",
      "type" : "elementwise",
      "name" : "conv_dw_2_relu__clip__",
      "beta" : 0
    },
    {
      "alpha" : -1,
      "bottom" : "conv_dw_2_relu_output_relu_clip",
      "weights" : {

      },
      "mode" : 6,
      "debug_info" : "conv_dw_2_relu_neg2",
      "top" : "conv_dw_2_relu_output",
      "type" : "activation",
      "name" : "conv_dw_2_relu_neg2",
      "beta" : 0
    },
    {
      "pad_r" : 0,
      "fused_relu" : 1,
      "fused_tanh" : 0,
      "debug_info" : "conv_pw_2",
      "pad_fill_mode" : 0,
      "pad_b" : 0,
      "pad_l" : 0,
      "top" : "conv_pw_2_relu_output_relu",
      "blob_weights" : 19,
      "K" : 32,
      "blob_biases" : 17,
      "name" : "conv_pw_2",
      "has_batch_norm" : 0,
      "type" : "convolution",
      "n_groups" : 1,
      "pad_t" : 0,
      "has_biases" : 1,
      "C" : 64,
      "bottom" : "conv_dw_2_relu_output",
      "weights" : {

      },
      "Nx" : 1,
      "pad_mode" : 1,
      "pad_value" : 0,
      "Ny" : 1,
      "n_parallel" : 1
    },
    {
      "alpha" : -1,
      "bottom" : "conv_pw_2_relu_output_relu",
      "weights" : {

      },
      "mode" : 6,
      "debug_info" : "conv_pw_2_relu__neg__",
      "top" : "conv_pw_2_relu_output_relu_neg",
      "type" : "activation",
      "name" : "conv_pw_2_relu__neg__",
      "beta" : 0
    },
    {
      "bottom" : "conv_pw_2_relu_output_relu_neg",
      "alpha" : -6,
      "operation" : 25,
      "weights" : {

      },
      "fused_relu" : 0,
      "debug_info" : "conv_pw_2_relu__clip__",
      "top" : "conv_pw_2_relu_output_relu_clip",
      "type" : "elementwise",
      "name" : "conv_pw_2_relu__clip__",
      "beta" : 0
    },
    {
      "alpha" : -1,
      "bottom" : "conv_pw_2_relu_output_relu_clip",
      "weights" : {

      },
      "mode" : 6,
      "debug_info" : "conv_pw_2_relu_neg2",
      "top" : "conv_pw_2_relu_output",
      "type" : "activation",
      "name" : "conv_pw_2_relu_neg2",
      "beta" : 0
    },
    {
      "pad_r" : 0,
      "fused_relu" : 1,
      "fused_tanh" : 0,
      "debug_info" : "conv_dw_3",
      "pad_fill_mode" : 0,
      "pad_b" : 0,
      "pad_l" : 0,
      "top" : "conv_dw_3_relu_output_relu",
      "blob_weights" : 23,
      "K" : 64,
      "blob_biases" : 21,
      "name" : "conv_dw_3",
      "has_batch_norm" : 0,
      "type" : "convolution",
      "n_groups" : 64,
      "pad_t" : 0,
      "has_biases" : 1,
      "C" : 64,
      "bottom" : "conv_pw_2_relu_output",
      "weights" : {

      },
      "Nx" : 3,
      "pad_mode" : 1,
      "pad_value" : 0,
      "Ny" : 3,
      "n_parallel" : 1
    },
    {
      "alpha" : -1,
      "bottom" : "conv_dw_3_relu_output_relu",
      "weights" : {

      },
      "mode" : 6,
      "debug_info" : "conv_dw_3_relu__neg__",
      "top" : "conv_dw_3_relu_output_relu_neg",
      "type" : "activation",
      "name" : "conv_dw_3_relu__neg__",
      "beta" : 0
    },
    {
      "bottom" : "conv_dw_3_relu_output_relu_neg",
      "alpha" : -6,
      "operation" : 25,
      "weights" : {

      },
      "fused_relu" : 0,
      "debug_info" : "conv_dw_3_relu__clip__",
      "top" : "conv_dw_3_relu_output_relu_clip",
      "type" : "elementwise",
      "name" : "conv_dw_3_relu__clip__",
      "beta" : 0
    },
    {
      "alpha" : -1,
      "bottom" : "conv_dw_3_relu_output_relu_clip",
      "weights" : {

      },
      "mode" : 6,
      "debug_info" : "conv_dw_3_relu_neg2",
      "top" : "conv_dw_3_relu_output",
      "type" : "activation",
      "name" : "conv_dw_3_relu_neg2",
      "beta" : 0
    },
    {
      "pad_r" : 0,
      "fused_relu" : 1,
      "fused_tanh" : 0,
      "debug_info" : "conv_pw_3",
      "pad_fill_mode" : 0,
      "pad_b" : 0,
      "pad_l" : 0,
      "top" : "conv_pw_3_relu_output_relu",
      "blob_weights" : 27,
      "K" : 64,
      "blob_biases" : 25,
      "name" : "conv_pw_3",
      "has_batch_norm" : 0,
      "type" : "convolution",
      "n_groups" : 1,
      "pad_t" : 0,
      "has_biases" : 1,
      "C" : 64,
      "bottom" : "conv_dw_3_relu_output",
      "weights" : {

      },
      "Nx" : 1,
      "pad_mode" : 1,
      "pad_value" : 0,
      "Ny" : 1,
      "n_parallel" : 1
    },
    {
      "alpha" : -1,
      "bottom" : "conv_pw_3_relu_output_relu",
      "weights" : {

      },
      "mode" : 6,
      "debug_info" : "conv_pw_3_relu__neg__",
      "top" : "conv_pw_3_relu_output_relu_neg",
      "type" : "activation",
      "name" : "conv_pw_3_relu__neg__",
      "beta" : 0
    },
    {
      "bottom" : "conv_pw_3_relu_output_relu_neg",
      "alpha" : -6,
      "operation" : 25,
      "weights" : {

      },
      "fused_relu" : 0,
      "debug_info" : "conv_pw_3_relu__clip__",
      "top" : "conv_pw_3_relu_output_relu_clip",
      "type" : "elementwise",
      "name" : "conv_pw_3_relu__clip__",
      "beta" : 0
    },
    {
      "alpha" : -1,
      "bottom" : "conv_pw_3_relu_output_relu_clip",
      "weights" : {

      },
      "mode" : 6,
      "debug_info" : "conv_pw_3_relu_neg2",
      "top" : "conv_pw_3_relu_output",
      "type" : "activation",
      "name" : "conv_pw_3_relu_neg2",
      "beta" : 0
    },
    {
      "pad_r" : 0,
      "fused_relu" : 1,
      "fused_tanh" : 0,
      "debug_info" : "conv_dw_4",
      "pad_fill_mode" : 0,
      "pad_b" : 0,
      "pad_l" : 0,
      "top" : "conv_dw_4_relu_output_relu",
      "blob_weights" : 31,
      "K" : 64,
      "blob_biases" : 29,
      "stride_x" : 2,
      "name" : "conv_dw_4",
      "has_batch_norm" : 0,
      "type" : "convolution",
      "n_groups" : 64,
      "pad_t" : 0,
      "stride_y" : 2,
      "has_biases" : 1,
      "C" : 64,
      "bottom" : "conv_pw_3_relu_output",
      "weights" : {

      },
      "Nx" : 3,
      "pad_mode" : 1,
      "pad_value" : 0,
      "Ny" : 3,
      "n_parallel" : 1
    },
    {
      "alpha" : -1,
      "bottom" : "conv_dw_4_relu_output_relu",
      "weights" : {

      },
      "mode" : 6,
      "debug_info" : "conv_dw_4_relu__neg__",
      "top" : "conv_dw_4_relu_output_relu_neg",
      "type" : "activation",
      "name" : "conv_dw_4_relu__neg__",
      "beta" : 0
    },
    {
      "bottom" : "conv_dw_4_relu_output_relu_neg",
      "alpha" : -6,
      "operation" : 25,
      "weights" : {

      },
      "fused_relu" : 0,
      "debug_info" : "conv_dw_4_relu__clip__",
      "top" : "conv_dw_4_relu_output_relu_clip",
      "type" : "elementwise",
      "name" : "conv_dw_4_relu__clip__",
      "beta" : 0
    },
    {
      "alpha" : -1,
      "bottom" : "conv_dw_4_relu_output_relu_clip",
      "weights" : {

      },
      "mode" : 6,
      "debug_info" : "conv_dw_4_relu_neg2",
      "top" : "conv_dw_4_relu_output",
      "type" : "activation",
      "name" : "conv_dw_4_relu_neg2",
      "beta" : 0
    },
    {
      "pad_r" : 0,
      "fused_relu" : 1,
      "fused_tanh" : 0,
      "debug_info" : "conv_pw_4",
      "pad_fill_mode" : 0,
      "pad_b" : 0,
      "pad_l" : 0,
      "top" : "conv_pw_4_relu_output_relu",
      "blob_weights" : 35,
      "K" : 64,
      "blob_biases" : 33,
      "name" : "conv_pw_4",
      "has_batch_norm" : 0,
      "type" : "convolution",
      "n_groups" : 1,
      "pad_t" : 0,
      "has_biases" : 1,
      "C" : 128,
      "bottom" : "conv_dw_4_relu_output",
      "weights" : {

      },
      "Nx" : 1,
      "pad_mode" : 1,
      "pad_value" : 0,
      "Ny" : 1,
      "n_parallel" : 1
    },
    {
      "alpha" : -1,
      "bottom" : "conv_pw_4_relu_output_relu",
      "weights" : {

      },
      "mode" : 6,
      "debug_info" : "conv_pw_4_relu__neg__",
      "top" : "conv_pw_4_relu_output_relu_neg",
      "type" : "activation",
      "name" : "conv_pw_4_relu__neg__",
      "beta" : 0
    },
    {
      "bottom" : "conv_pw_4_relu_output_relu_neg",
      "alpha" : -6,
      "operation" : 25,
      "weights" : {

      },
      "fused_relu" : 0,
      "debug_info" : "conv_pw_4_relu__clip__",
      "top" : "conv_pw_4_relu_output_relu_clip",
      "type" : "elementwise",
      "name" : "conv_pw_4_relu__clip__",
      "beta" : 0
    },
    {
      "alpha" : -1,
      "bottom" : "conv_pw_4_relu_output_relu_clip",
      "weights" : {

      },
      "mode" : 6,
      "debug_info" : "conv_pw_4_relu_neg2",
      "top" : "conv_pw_4_relu_output",
      "type" : "activation",
      "name" : "conv_pw_4_relu_neg2",
      "beta" : 0
    },
    {
      "pad_r" : 0,
      "fused_relu" : 1,
      "fused_tanh" : 0,
      "debug_info" : "conv_dw_5",
      "pad_fill_mode" : 0,
      "pad_b" : 0,
      "pad_l" : 0,
      "top" : "conv_dw_5_relu_output_relu",
      "blob_weights" : 39,
      "K" : 128,
      "blob_biases" : 37,
      "name" : "conv_dw_5",
      "has_batch_norm" : 0,
      "type" : "convolution",
      "n_groups" : 128,
      "pad_t" : 0,
      "has_biases" : 1,
      "C" : 128,
      "bottom" : "conv_pw_4_relu_output",
      "weights" : {

      },
      "Nx" : 3,
      "pad_mode" : 1,
      "pad_value" : 0,
      "Ny" : 3,
      "n_parallel" : 1
    },
    {
      "alpha" : -1,
      "bottom" : "conv_dw_5_relu_output_relu",
      "weights" : {

      },
      "mode" : 6,
      "debug_info" : "conv_dw_5_relu__neg__",
      "top" : "conv_dw_5_relu_output_relu_neg",
      "type" : "activation",
      "name" : "conv_dw_5_relu__neg__",
      "beta" : 0
    },
    {
      "bottom" : "conv_dw_5_relu_output_relu_neg",
      "alpha" : -6,
      "operation" : 25,
      "weights" : {

      },
      "fused_relu" : 0,
      "debug_info" : "conv_dw_5_relu__clip__",
      "top" : "conv_dw_5_relu_output_relu_clip",
      "type" : "elementwise",
      "name" : "conv_dw_5_relu__clip__",
      "beta" : 0
    },
    {
      "alpha" : -1,
      "bottom" : "conv_dw_5_relu_output_relu_clip",
      "weights" : {

      },
      "mode" : 6,
      "debug_info" : "conv_dw_5_relu_neg2",
      "top" : "conv_dw_5_relu_output",
      "type" : "activation",
      "name" : "conv_dw_5_relu_neg2",
      "beta" : 0
    },
    {
      "pad_r" : 0,
      "fused_relu" : 1,
      "fused_tanh" : 0,
      "debug_info" : "conv_pw_5",
      "pad_fill_mode" : 0,
      "pad_b" : 0,
      "pad_l" : 0,
      "top" : "conv_pw_5_relu_output_relu",
      "blob_weights" : 43,
      "K" : 128,
      "blob_biases" : 41,
      "name" : "conv_pw_5",
      "has_batch_norm" : 0,
      "type" : "convolution",
      "n_groups" : 1,
      "pad_t" : 0,
      "has_biases" : 1,
      "C" : 128,
      "bottom" : "conv_dw_5_relu_output",
      "weights" : {

      },
      "Nx" : 1,
      "pad_mode" : 1,
      "pad_value" : 0,
      "Ny" : 1,
      "n_parallel" : 1
    },
    {
      "alpha" : -1,
      "bottom" : "conv_pw_5_relu_output_relu",
      "weights" : {

      },
      "mode" : 6,
      "debug_info" : "conv_pw_5_relu__neg__",
      "top" : "conv_pw_5_relu_output_relu_neg",
      "type" : "activation",
      "name" : "conv_pw_5_relu__neg__",
      "beta" : 0
    },
    {
      "bottom" : "conv_pw_5_relu_output_relu_neg",
      "alpha" : -6,
      "operation" : 25,
      "weights" : {

      },
      "fused_relu" : 0,
      "debug_info" : "conv_pw_5_relu__clip__",
      "top" : "conv_pw_5_relu_output_relu_clip",
      "type" : "elementwise",
      "name" : "conv_pw_5_relu__clip__",
      "beta" : 0
    },
    {
      "alpha" : -1,
      "bottom" : "conv_pw_5_relu_output_relu_clip",
      "weights" : {

      },
      "mode" : 6,
      "debug_info" : "conv_pw_5_relu_neg2",
      "top" : "conv_pw_5_relu_output",
      "type" : "activation",
      "name" : "conv_pw_5_relu_neg2",
      "beta" : 0
    },
    {
      "pad_r" : 0,
      "fused_relu" : 1,
      "fused_tanh" : 0,
      "debug_info" : "conv_dw_6",
      "pad_fill_mode" : 0,
      "pad_b" : 0,
      "pad_l" : 0,
      "top" : "conv_dw_6_relu_output_relu",
      "blob_weights" : 47,
      "K" : 128,
      "blob_biases" : 45,
      "stride_x" : 2,
      "name" : "conv_dw_6",
      "has_batch_norm" : 0,
      "type" : "convolution",
      "n_groups" : 128,
      "pad_t" : 0,
      "stride_y" : 2,
      "has_biases" : 1,
      "C" : 128,
      "bottom" : "conv_pw_5_relu_output",
      "weights" : {

      },
      "Nx" : 3,
      "pad_mode" : 1,
      "pad_value" : 0,
      "Ny" : 3,
      "n_parallel" : 1
    },
    {
      "alpha" : -1,
      "bottom" : "conv_dw_6_relu_output_relu",
      "weights" : {

      },
      "mode" : 6,
      "debug_info" : "conv_dw_6_relu__neg__",
      "top" : "conv_dw_6_relu_output_relu_neg",
      "type" : "activation",
      "name" : "conv_dw_6_relu__neg__",
      "beta" : 0
    },
    {
      "bottom" : "conv_dw_6_relu_output_relu_neg",
      "alpha" : -6,
      "operation" : 25,
      "weights" : {

      },
      "fused_relu" : 0,
      "debug_info" : "conv_dw_6_relu__clip__",
      "top" : "conv_dw_6_relu_output_relu_clip",
      "type" : "elementwise",
      "name" : "conv_dw_6_relu__clip__",
      "beta" : 0
    },
    {
      "alpha" : -1,
      "bottom" : "conv_dw_6_relu_output_relu_clip",
      "weights" : {

      },
      "mode" : 6,
      "debug_info" : "conv_dw_6_relu_neg2",
      "top" : "conv_dw_6_relu_output",
      "type" : "activation",
      "name" : "conv_dw_6_relu_neg2",
      "beta" : 0
    },
    {
      "pad_r" : 0,
      "fused_relu" : 1,
      "fused_tanh" : 0,
      "debug_info" : "conv_pw_6",
      "pad_fill_mode" : 0,
      "pad_b" : 0,
      "pad_l" : 0,
      "top" : "conv_pw_6_relu_output_relu",
      "blob_weights" : 51,
      "K" : 128,
      "blob_biases" : 49,
      "name" : "conv_pw_6",
      "has_batch_norm" : 0,
      "type" : "convolution",
      "n_groups" : 1,
      "pad_t" : 0,
      "has_biases" : 1,
      "C" : 256,
      "bottom" : "conv_dw_6_relu_output",
      "weights" : {

      },
      "Nx" : 1,
      "pad_mode" : 1,
      "pad_value" : 0,
      "Ny" : 1,
      "n_parallel" : 1
    },
    {
      "alpha" : -1,
      "bottom" : "conv_pw_6_relu_output_relu",
      "weights" : {

      },
      "mode" : 6,
      "debug_info" : "conv_pw_6_relu__neg__",
      "top" : "conv_pw_6_relu_output_relu_neg",
      "type" : "activation",
      "name" : "conv_pw_6_relu__neg__",
      "beta" : 0
    },
    {
      "bottom" : "conv_pw_6_relu_output_relu_neg",
      "alpha" : -6,
      "operation" : 25,
      "weights" : {

      },
      "fused_relu" : 0,
      "debug_info" : "conv_pw_6_relu__clip__",
      "top" : "conv_pw_6_relu_output_relu_clip",
      "type" : "elementwise",
      "name" : "conv_pw_6_relu__clip__",
      "beta" : 0
    },
    {
      "alpha" : -1,
      "bottom" : "conv_pw_6_relu_output_relu_clip",
      "weights" : {

      },
      "mode" : 6,
      "debug_info" : "conv_pw_6_relu_neg2",
      "top" : "conv_pw_6_relu_output",
      "type" : "activation",
      "name" : "conv_pw_6_relu_neg2",
      "beta" : 0
    },
    {
      "pad_r" : 0,
      "fused_relu" : 1,
      "fused_tanh" : 0,
      "debug_info" : "conv_dw_7",
      "pad_fill_mode" : 0,
      "pad_b" : 0,
      "pad_l" : 0,
      "top" : "conv_dw_7_relu_output_relu",
      "blob_weights" : 55,
      "K" : 256,
      "blob_biases" : 53,
      "name" : "conv_dw_7",
      "has_batch_norm" : 0,
      "type" : "convolution",
      "n_groups" : 256,
      "pad_t" : 0,
      "has_biases" : 1,
      "C" : 256,
      "bottom" : "conv_pw_6_relu_output",
      "weights" : {

      },
      "Nx" : 3,
      "pad_mode" : 1,
      "pad_value" : 0,
      "Ny" : 3,
      "n_parallel" : 1
    },
    {
      "alpha" : -1,
      "bottom" : "conv_dw_7_relu_output_relu",
      "weights" : {

      },
      "mode" : 6,
      "debug_info" : "conv_dw_7_relu__neg__",
      "top" : "conv_dw_7_relu_output_relu_neg",
      "type" : "activation",
      "name" : "conv_dw_7_relu__neg__",
      "beta" : 0
    },
    {
      "bottom" : "conv_dw_7_relu_output_relu_neg",
      "alpha" : -6,
      "operation" : 25,
      "weights" : {

      },
      "fused_relu" : 0,
      "debug_info" : "conv_dw_7_relu__clip__",
      "top" : "conv_dw_7_relu_output_relu_clip",
      "type" : "elementwise",
      "name" : "conv_dw_7_relu__clip__",
      "beta" : 0
    },
    {
      "alpha" : -1,
      "bottom" : "conv_dw_7_relu_output_relu_clip",
      "weights" : {

      },
      "mode" : 6,
      "debug_info" : "conv_dw_7_relu_neg2",
      "top" : "conv_dw_7_relu_output",
      "type" : "activation",
      "name" : "conv_dw_7_relu_neg2",
      "beta" : 0
    },
    {
      "pad_r" : 0,
      "fused_relu" : 1,
      "fused_tanh" : 0,
      "debug_info" : "conv_pw_7",
      "pad_fill_mode" : 0,
      "pad_b" : 0,
      "pad_l" : 0,
      "top" : "conv_pw_7_relu_output_relu",
      "blob_weights" : 59,
      "K" : 256,
      "blob_biases" : 57,
      "name" : "conv_pw_7",
      "has_batch_norm" : 0,
      "type" : "convolution",
      "n_groups" : 1,
      "pad_t" : 0,
      "has_biases" : 1,
      "C" : 256,
      "bottom" : "conv_dw_7_relu_output",
      "weights" : {

      },
      "Nx" : 1,
      "pad_mode" : 1,
      "pad_value" : 0,
      "Ny" : 1,
      "n_parallel" : 1
    },
    {
      "alpha" : -1,
      "bottom" : "conv_pw_7_relu_output_relu",
      "weights" : {

      },
      "mode" : 6,
      "debug_info" : "conv_pw_7_relu__neg__",
      "top" : "conv_pw_7_relu_output_relu_neg",
      "type" : "activation",
      "name" : "conv_pw_7_relu__neg__",
      "beta" : 0
    },
    {
      "bottom" : "conv_pw_7_relu_output_relu_neg",
      "alpha" : -6,
      "operation" : 25,
      "weights" : {

      },
      "fused_relu" : 0,
      "debug_info" : "conv_pw_7_relu__clip__",
      "top" : "conv_pw_7_relu_output_relu_clip",
      "type" : "elementwise",
      "name" : "conv_pw_7_relu__clip__",
      "beta" : 0
    },
    {
      "alpha" : -1,
      "bottom" : "conv_pw_7_relu_output_relu_clip",
      "weights" : {

      },
      "mode" : 6,
      "debug_info" : "conv_pw_7_relu_neg2",
      "top" : "conv_pw_7_relu_output",
      "type" : "activation",
      "name" : "conv_pw_7_relu_neg2",
      "beta" : 0
    },
    {
      "pad_r" : 0,
      "fused_relu" : 1,
      "fused_tanh" : 0,
      "debug_info" : "conv_dw_8",
      "pad_fill_mode" : 0,
      "pad_b" : 0,
      "pad_l" : 0,
      "top" : "conv_dw_8_relu_output_relu",
      "blob_weights" : 63,
      "K" : 256,
      "blob_biases" : 61,
      "name" : "conv_dw_8",
      "has_batch_norm" : 0,
      "type" : "convolution",
      "n_groups" : 256,
      "pad_t" : 0,
      "has_biases" : 1,
      "C" : 256,
      "bottom" : "conv_pw_7_relu_output",
      "weights" : {

      },
      "Nx" : 3,
      "pad_mode" : 1,
      "pad_value" : 0,
      "Ny" : 3,
      "n_parallel" : 1
    },
    {
      "alpha" : -1,
      "bottom" : "conv_dw_8_relu_output_relu",
      "weights" : {

      },
      "mode" : 6,
      "debug_info" : "conv_dw_8_relu__neg__",
      "top" : "conv_dw_8_relu_output_relu_neg",
      "type" : "activation",
      "name" : "conv_dw_8_relu__neg__",
      "beta" : 0
    },
    {
      "bottom" : "conv_dw_8_relu_output_relu_neg",
      "alpha" : -6,
      "operation" : 25,
      "weights" : {

      },
      "fused_relu" : 0,
      "debug_info" : "conv_dw_8_relu__clip__",
      "top" : "conv_dw_8_relu_output_relu_clip",
      "type" : "elementwise",
      "name" : "conv_dw_8_relu__clip__",
      "beta" : 0
    },
    {
      "alpha" : -1,
      "bottom" : "conv_dw_8_relu_output_relu_clip",
      "weights" : {

      },
      "mode" : 6,
      "debug_info" : "conv_dw_8_relu_neg2",
      "top" : "conv_dw_8_relu_output",
      "type" : "activation",
      "name" : "conv_dw_8_relu_neg2",
      "beta" : 0
    },
    {
      "pad_r" : 0,
      "fused_relu" : 1,
      "fused_tanh" : 0,
      "debug_info" : "conv_pw_8",
      "pad_fill_mode" : 0,
      "pad_b" : 0,
      "pad_l" : 0,
      "top" : "conv_pw_8_relu_output_relu",
      "blob_weights" : 67,
      "K" : 256,
      "blob_biases" : 65,
      "name" : "conv_pw_8",
      "has_batch_norm" : 0,
      "type" : "convolution",
      "n_groups" : 1,
      "pad_t" : 0,
      "has_biases" : 1,
      "C" : 256,
      "bottom" : "conv_dw_8_relu_output",
      "weights" : {

      },
      "Nx" : 1,
      "pad_mode" : 1,
      "pad_value" : 0,
      "Ny" : 1,
      "n_parallel" : 1
    },
    {
      "alpha" : -1,
      "bottom" : "conv_pw_8_relu_output_relu",
      "weights" : {

      },
      "mode" : 6,
      "debug_info" : "conv_pw_8_relu__neg__",
      "top" : "conv_pw_8_relu_output_relu_neg",
      "type" : "activation",
      "name" : "conv_pw_8_relu__neg__",
      "beta" : 0
    },
    {
      "bottom" : "conv_pw_8_relu_output_relu_neg",
      "alpha" : -6,
      "operation" : 25,
      "weights" : {

      },
      "fused_relu" : 0,
      "debug_info" : "conv_pw_8_relu__clip__",
      "top" : "conv_pw_8_relu_output_relu_clip",
      "type" : "elementwise",
      "name" : "conv_pw_8_relu__clip__",
      "beta" : 0
    },
    {
      "alpha" : -1,
      "bottom" : "conv_pw_8_relu_output_relu_clip",
      "weights" : {

      },
      "mode" : 6,
      "debug_info" : "conv_pw_8_relu_neg2",
      "top" : "conv_pw_8_relu_output",
      "type" : "activation",
      "name" : "conv_pw_8_relu_neg2",
      "beta" : 0
    },
    {
      "pad_r" : 0,
      "fused_relu" : 1,
      "fused_tanh" : 0,
      "debug_info" : "conv_dw_9",
      "pad_fill_mode" : 0,
      "pad_b" : 0,
      "pad_l" : 0,
      "top" : "conv_dw_9_relu_output_relu",
      "blob_weights" : 71,
      "K" : 256,
      "blob_biases" : 69,
      "name" : "conv_dw_9",
      "has_batch_norm" : 0,
      "type" : "convolution",
      "n_groups" : 256,
      "pad_t" : 0,
      "has_biases" : 1,
      "C" : 256,
      "bottom" : "conv_pw_8_relu_output",
      "weights" : {

      },
      "Nx" : 3,
      "pad_mode" : 1,
      "pad_value" : 0,
      "Ny" : 3,
      "n_parallel" : 1
    },
    {
      "alpha" : -1,
      "bottom" : "conv_dw_9_relu_output_relu",
      "weights" : {

      },
      "mode" : 6,
      "debug_info" : "conv_dw_9_relu__neg__",
      "top" : "conv_dw_9_relu_output_relu_neg",
      "type" : "activation",
      "name" : "conv_dw_9_relu__neg__",
      "beta" : 0
    },
    {
      "bottom" : "conv_dw_9_relu_output_relu_neg",
      "alpha" : -6,
      "operation" : 25,
      "weights" : {

      },
      "fused_relu" : 0,
      "debug_info" : "conv_dw_9_relu__clip__",
      "top" : "conv_dw_9_relu_output_relu_clip",
      "type" : "elementwise",
      "name" : "conv_dw_9_relu__clip__",
      "beta" : 0
    },
    {
      "alpha" : -1,
      "bottom" : "conv_dw_9_relu_output_relu_clip",
      "weights" : {

      },
      "mode" : 6,
      "debug_info" : "conv_dw_9_relu_neg2",
      "top" : "conv_dw_9_relu_output",
      "type" : "activation",
      "name" : "conv_dw_9_relu_neg2",
      "beta" : 0
    },
    {
      "pad_r" : 0,
      "fused_relu" : 1,
      "fused_tanh" : 0,
      "debug_info" : "conv_pw_9",
      "pad_fill_mode" : 0,
      "pad_b" : 0,
      "pad_l" : 0,
      "top" : "conv_pw_9_relu_output_relu",
      "blob_weights" : 75,
      "K" : 256,
      "blob_biases" : 73,
      "name" : "conv_pw_9",
      "has_batch_norm" : 0,
      "type" : "convolution",
      "n_groups" : 1,
      "pad_t" : 0,
      "has_biases" : 1,
      "C" : 256,
      "bottom" : "conv_dw_9_relu_output",
      "weights" : {

      },
      "Nx" : 1,
      "pad_mode" : 1,
      "pad_value" : 0,
      "Ny" : 1,
      "n_parallel" : 1
    },
    {
      "alpha" : -1,
      "bottom" : "conv_pw_9_relu_output_relu",
      "weights" : {

      },
      "mode" : 6,
      "debug_info" : "conv_pw_9_relu__neg__",
      "top" : "conv_pw_9_relu_output_relu_neg",
      "type" : "activation",
      "name" : "conv_pw_9_relu__neg__",
      "beta" : 0
    },
    {
      "bottom" : "conv_pw_9_relu_output_relu_neg",
      "alpha" : -6,
      "operation" : 25,
      "weights" : {

      },
      "fused_relu" : 0,
      "debug_info" : "conv_pw_9_relu__clip__",
      "top" : "conv_pw_9_relu_output_relu_clip",
      "type" : "elementwise",
      "name" : "conv_pw_9_relu__clip__",
      "beta" : 0
    },
    {
      "alpha" : -1,
      "bottom" : "conv_pw_9_relu_output_relu_clip",
      "weights" : {

      },
      "mode" : 6,
      "debug_info" : "conv_pw_9_relu_neg2",
      "top" : "conv_pw_9_relu_output",
      "type" : "activation",
      "name" : "conv_pw_9_relu_neg2",
      "beta" : 0
    },
    {
      "pad_r" : 0,
      "fused_relu" : 1,
      "fused_tanh" : 0,
      "debug_info" : "conv_dw_10",
      "pad_fill_mode" : 0,
      "pad_b" : 0,
      "pad_l" : 0,
      "top" : "conv_dw_10_relu_output_relu",
      "blob_weights" : 79,
      "K" : 256,
      "blob_biases" : 77,
      "name" : "conv_dw_10",
      "has_batch_norm" : 0,
      "type" : "convolution",
      "n_groups" : 256,
      "pad_t" : 0,
      "has_biases" : 1,
      "C" : 256,
      "bottom" : "conv_pw_9_relu_output",
      "weights" : {

      },
      "Nx" : 3,
      "pad_mode" : 1,
      "pad_value" : 0,
      "Ny" : 3,
      "n_parallel" : 1
    },
    {
      "alpha" : -1,
      "bottom" : "conv_dw_10_relu_output_relu",
      "weights" : {

      },
      "mode" : 6,
      "debug_info" : "conv_dw_10_relu__neg__",
      "top" : "conv_dw_10_relu_output_relu_neg",
      "type" : "activation",
      "name" : "conv_dw_10_relu__neg__",
      "beta" : 0
    },
    {
      "bottom" : "conv_dw_10_relu_output_relu_neg",
      "alpha" : -6,
      "operation" : 25,
      "weights" : {

      },
      "fused_relu" : 0,
      "debug_info" : "conv_dw_10_relu__clip__",
      "top" : "conv_dw_10_relu_output_relu_clip",
      "type" : "elementwise",
      "name" : "conv_dw_10_relu__clip__",
      "beta" : 0
    },
    {
      "alpha" : -1,
      "bottom" : "conv_dw_10_relu_output_relu_clip",
      "weights" : {

      },
      "mode" : 6,
      "debug_info" : "conv_dw_10_relu_neg2",
      "top" : "conv_dw_10_relu_output",
      "type" : "activation",
      "name" : "conv_dw_10_relu_neg2",
      "beta" : 0
    },
    {
      "pad_r" : 0,
      "fused_relu" : 1,
      "fused_tanh" : 0,
      "debug_info" : "conv_pw_10",
      "pad_fill_mode" : 0,
      "pad_b" : 0,
      "pad_l" : 0,
      "top" : "conv_pw_10_relu_output_relu",
      "blob_weights" : 83,
      "K" : 256,
      "blob_biases" : 81,
      "name" : "conv_pw_10",
      "has_batch_norm" : 0,
      "type" : "convolution",
      "n_groups" : 1,
      "pad_t" : 0,
      "has_biases" : 1,
      "C" : 256,
      "bottom" : "conv_dw_10_relu_output",
      "weights" : {

      },
      "Nx" : 1,
      "pad_mode" : 1,
      "pad_value" : 0,
      "Ny" : 1,
      "n_parallel" : 1
    },
    {
      "alpha" : -1,
      "bottom" : "conv_pw_10_relu_output_relu",
      "weights" : {

      },
      "mode" : 6,
      "debug_info" : "conv_pw_10_relu__neg__",
      "top" : "conv_pw_10_relu_output_relu_neg",
      "type" : "activation",
      "name" : "conv_pw_10_relu__neg__",
      "beta" : 0
    },
    {
      "bottom" : "conv_pw_10_relu_output_relu_neg",
      "alpha" : -6,
      "operation" : 25,
      "weights" : {

      },
      "fused_relu" : 0,
      "debug_info" : "conv_pw_10_relu__clip__",
      "top" : "conv_pw_10_relu_output_relu_clip",
      "type" : "elementwise",
      "name" : "conv_pw_10_relu__clip__",
      "beta" : 0
    },
    {
      "alpha" : -1,
      "bottom" : "conv_pw_10_relu_output_relu_clip",
      "weights" : {

      },
      "mode" : 6,
      "debug_info" : "conv_pw_10_relu_neg2",
      "top" : "conv_pw_10_relu_output",
      "type" : "activation",
      "name" : "conv_pw_10_relu_neg2",
      "beta" : 0
    },
    {
      "pad_r" : 0,
      "fused_relu" : 1,
      "fused_tanh" : 0,
      "debug_info" : "conv_dw_11",
      "pad_fill_mode" : 0,
      "pad_b" : 0,
      "pad_l" : 0,
      "top" : "conv_dw_11_relu_output_relu",
      "blob_weights" : 87,
      "K" : 256,
      "blob_biases" : 85,
      "name" : "conv_dw_11",
      "has_batch_norm" : 0,
      "type" : "convolution",
      "n_groups" : 256,
      "pad_t" : 0,
      "has_biases" : 1,
      "C" : 256,
      "bottom" : "conv_pw_10_relu_output",
      "weights" : {

      },
      "Nx" : 3,
      "pad_mode" : 1,
      "pad_value" : 0,
      "Ny" : 3,
      "n_parallel" : 1
    },
    {
      "alpha" : -1,
      "bottom" : "conv_dw_11_relu_output_relu",
      "weights" : {

      },
      "mode" : 6,
      "debug_info" : "conv_dw_11_relu__neg__",
      "top" : "conv_dw_11_relu_output_relu_neg",
      "type" : "activation",
      "name" : "conv_dw_11_relu__neg__",
      "beta" : 0
    },
    {
      "bottom" : "conv_dw_11_relu_output_relu_neg",
      "alpha" : -6,
      "operation" : 25,
      "weights" : {

      },
      "fused_relu" : 0,
      "debug_info" : "conv_dw_11_relu__clip__",
      "top" : "conv_dw_11_relu_output_relu_clip",
      "type" : "elementwise",
      "name" : "conv_dw_11_relu__clip__",
      "beta" : 0
    },
    {
      "alpha" : -1,
      "bottom" : "conv_dw_11_relu_output_relu_clip",
      "weights" : {

      },
      "mode" : 6,
      "debug_info" : "conv_dw_11_relu_neg2",
      "top" : "conv_dw_11_relu_output",
      "type" : "activation",
      "name" : "conv_dw_11_relu_neg2",
      "beta" : 0
    },
    {
      "pad_r" : 0,
      "fused_relu" : 1,
      "fused_tanh" : 0,
      "debug_info" : "conv_pw_11",
      "pad_fill_mode" : 0,
      "pad_b" : 0,
      "pad_l" : 0,
      "top" : "conv_pw_11_relu_output_relu",
      "blob_weights" : 91,
      "K" : 256,
      "blob_biases" : 89,
      "name" : "conv_pw_11",
      "has_batch_norm" : 0,
      "type" : "convolution",
      "n_groups" : 1,
      "pad_t" : 0,
      "has_biases" : 1,
      "C" : 256,
      "bottom" : "conv_dw_11_relu_output",
      "weights" : {

      },
      "Nx" : 1,
      "pad_mode" : 1,
      "pad_value" : 0,
      "Ny" : 1,
      "n_parallel" : 1
    },
    {
      "alpha" : -1,
      "bottom" : "conv_pw_11_relu_output_relu",
      "weights" : {

      },
      "mode" : 6,
      "debug_info" : "conv_pw_11_relu__neg__",
      "top" : "conv_pw_11_relu_output_relu_neg",
      "type" : "activation",
      "name" : "conv_pw_11_relu__neg__",
      "beta" : 0
    },
    {
      "bottom" : "conv_pw_11_relu_output_relu_neg",
      "alpha" : -6,
      "operation" : 25,
      "weights" : {

      },
      "fused_relu" : 0,
      "debug_info" : "conv_pw_11_relu__clip__",
      "top" : "conv_pw_11_relu_output_relu_clip",
      "type" : "elementwise",
      "name" : "conv_pw_11_relu__clip__",
      "beta" : 0
    },
    {
      "alpha" : -1,
      "bottom" : "conv_pw_11_relu_output_relu_clip",
      "weights" : {

      },
      "mode" : 6,
      "debug_info" : "conv_pw_11_relu_neg2",
      "top" : "conv_pw_11_relu_output",
      "type" : "activation",
      "name" : "conv_pw_11_relu_neg2",
      "beta" : 0
    },
    {
      "pad_r" : 0,
      "fused_relu" : 1,
      "fused_tanh" : 0,
      "debug_info" : "conv_dw_12",
      "pad_fill_mode" : 0,
      "pad_b" : 0,
      "pad_l" : 0,
      "top" : "conv_dw_12_relu_output_relu",
      "blob_weights" : 95,
      "K" : 256,
      "blob_biases" : 93,
      "stride_x" : 2,
      "name" : "conv_dw_12",
      "has_batch_norm" : 0,
      "type" : "convolution",
      "n_groups" : 256,
      "pad_t" : 0,
      "stride_y" : 2,
      "has_biases" : 1,
      "C" : 256,
      "bottom" : "conv_pw_11_relu_output",
      "weights" : {

      },
      "Nx" : 3,
      "pad_mode" : 1,
      "pad_value" : 0,
      "Ny" : 3,
      "n_parallel" : 1
    },
    {
      "alpha" : -1,
      "bottom" : "conv_dw_12_relu_output_relu",
      "weights" : {

      },
      "mode" : 6,
      "debug_info" : "conv_dw_12_relu__neg__",
      "top" : "conv_dw_12_relu_output_relu_neg",
      "type" : "activation",
      "name" : "conv_dw_12_relu__neg__",
      "beta" : 0
    },
    {
      "bottom" : "conv_dw_12_relu_output_relu_neg",
      "alpha" : -6,
      "operation" : 25,
      "weights" : {

      },
      "fused_relu" : 0,
      "debug_info" : "conv_dw_12_relu__clip__",
      "top" : "conv_dw_12_relu_output_relu_clip",
      "type" : "elementwise",
      "name" : "conv_dw_12_relu__clip__",
      "beta" : 0
    },
    {
      "alpha" : -1,
      "bottom" : "conv_dw_12_relu_output_relu_clip",
      "weights" : {

      },
      "mode" : 6,
      "debug_info" : "conv_dw_12_relu_neg2",
      "top" : "conv_dw_12_relu_output",
      "type" : "activation",
      "name" : "conv_dw_12_relu_neg2",
      "beta" : 0
    },
    {
      "pad_r" : 0,
      "fused_relu" : 1,
      "fused_tanh" : 0,
      "debug_info" : "conv_pw_12",
      "pad_fill_mode" : 0,
      "pad_b" : 0,
      "pad_l" : 0,
      "top" : "conv_pw_12_relu_output_relu",
      "blob_weights" : 99,
      "K" : 256,
      "blob_biases" : 97,
      "name" : "conv_pw_12",
      "has_batch_norm" : 0,
      "type" : "convolution",
      "n_groups" : 1,
      "pad_t" : 0,
      "has_biases" : 1,
      "C" : 512,
      "bottom" : "conv_dw_12_relu_output",
      "weights" : {

      },
      "Nx" : 1,
      "pad_mode" : 1,
      "pad_value" : 0,
      "Ny" : 1,
      "n_parallel" : 1
    },
    {
      "alpha" : -1,
      "bottom" : "conv_pw_12_relu_output_relu",
      "weights" : {

      },
      "mode" : 6,
      "debug_info" : "conv_pw_12_relu__neg__",
      "top" : "conv_pw_12_relu_output_relu_neg",
      "type" : "activation",
      "name" : "conv_pw_12_relu__neg__",
      "beta" : 0
    },
    {
      "bottom" : "conv_pw_12_relu_output_relu_neg",
      "alpha" : -6,
      "operation" : 25,
      "weights" : {

      },
      "fused_relu" : 0,
      "debug_info" : "conv_pw_12_relu__clip__",
      "top" : "conv_pw_12_relu_output_relu_clip",
      "type" : "elementwise",
      "name" : "conv_pw_12_relu__clip__",
      "beta" : 0
    },
    {
      "alpha" : -1,
      "bottom" : "conv_pw_12_relu_output_relu_clip",
      "weights" : {

      },
      "mode" : 6,
      "debug_info" : "conv_pw_12_relu_neg2",
      "top" : "conv_pw_12_relu_output",
      "type" : "activation",
      "name" : "conv_pw_12_relu_neg2",
      "beta" : 0
    },
    {
      "pad_r" : 0,
      "fused_relu" : 1,
      "fused_tanh" : 0,
      "debug_info" : "conv_dw_13",
      "pad_fill_mode" : 0,
      "pad_b" : 0,
      "pad_l" : 0,
      "top" : "conv_dw_13_relu_output_relu",
      "blob_weights" : 103,
      "K" : 512,
      "blob_biases" : 101,
      "name" : "conv_dw_13",
      "has_batch_norm" : 0,
      "type" : "convolution",
      "n_groups" : 512,
      "pad_t" : 0,
      "has_biases" : 1,
      "C" : 512,
      "bottom" : "conv_pw_12_relu_output",
      "weights" : {

      },
      "Nx" : 3,
      "pad_mode" : 1,
      "pad_value" : 0,
      "Ny" : 3,
      "n_parallel" : 1
    },
    {
      "alpha" : -1,
      "bottom" : "conv_dw_13_relu_output_relu",
      "weights" : {

      },
      "mode" : 6,
      "debug_info" : "conv_dw_13_relu__neg__",
      "top" : "conv_dw_13_relu_output_relu_neg",
      "type" : "activation",
      "name" : "conv_dw_13_relu__neg__",
      "beta" : 0
    },
    {
      "bottom" : "conv_dw_13_relu_output_relu_neg",
      "alpha" : -6,
      "operation" : 25,
      "weights" : {

      },
      "fused_relu" : 0,
      "debug_info" : "conv_dw_13_relu__clip__",
      "top" : "conv_dw_13_relu_output_relu_clip",
      "type" : "elementwise",
      "name" : "conv_dw_13_relu__clip__",
      "beta" : 0
    },
    {
      "alpha" : -1,
      "bottom" : "conv_dw_13_relu_output_relu_clip",
      "weights" : {

      },
      "mode" : 6,
      "debug_info" : "conv_dw_13_relu_neg2",
      "top" : "conv_dw_13_relu_output",
      "type" : "activation",
      "name" : "conv_dw_13_relu_neg2",
      "beta" : 0
    },
    {
      "pad_r" : 0,
      "fused_relu" : 1,
      "fused_tanh" : 0,
      "debug_info" : "conv_pw_13",
      "pad_fill_mode" : 0,
      "pad_b" : 0,
      "pad_l" : 0,
      "top" : "conv_pw_13_relu_output_relu",
      "blob_weights" : 107,
      "K" : 512,
      "blob_biases" : 105,
      "name" : "conv_pw_13",
      "has_batch_norm" : 0,
      "type" : "convolution",
      "n_groups" : 1,
      "pad_t" : 0,
      "has_biases" : 1,
      "C" : 512,
      "bottom" : "conv_dw_13_relu_output",
      "weights" : {

      },
      "Nx" : 1,
      "pad_mode" : 1,
      "pad_value" : 0,
      "Ny" : 1,
      "n_parallel" : 1
    },
    {
      "alpha" : -1,
      "bottom" : "conv_pw_13_relu_output_relu",
      "weights" : {

      },
      "mode" : 6,
      "debug_info" : "conv_pw_13_relu__neg__",
      "top" : "conv_pw_13_relu_output_relu_neg",
      "type" : "activation",
      "name" : "conv_pw_13_relu__neg__",
      "beta" : 0
    },
    {
      "bottom" : "conv_pw_13_relu_output_relu_neg",
      "alpha" : -6,
      "operation" : 25,
      "weights" : {

      },
      "fused_relu" : 0,
      "debug_info" : "conv_pw_13_relu__clip__",
      "top" : "conv_pw_13_relu_output_relu_clip",
      "type" : "elementwise",
      "name" : "conv_pw_13_relu__clip__",
      "beta" : 0
    },
    {
      "alpha" : -1,
      "bottom" : "conv_pw_13_relu_output_relu_clip",
      "weights" : {

      },
      "mode" : 6,
      "debug_info" : "conv_pw_13_relu_neg2",
      "top" : "conv_pw_13_relu_output",
      "type" : "activation",
      "name" : "conv_pw_13_relu_neg2",
      "beta" : 0
    },
    {
      "pad_r" : 0,
      "fused_relu" : 0,
      "fused_tanh" : 0,
      "debug_info" : "conv2d_transpose_37",
      "pad_fill_mode" : 0,
      "pad_b" : 0,
      "pad_l" : 0,
      "top" : "conv2d_transpose_37_output",
      "blob_weights" : 111,
      "K" : 512,
      "blob_biases" : 109,
      "stride_x" : 2,
      "name" : "conv2d_transpose_37",
      "deconv_out_height" : 14,
      "has_batch_norm" : 0,
      "type" : "deconvolution",
      "n_groups" : 1,
      "pad_t" : 0,
      "stride_y" : 2,
      "has_biases" : 1,
      "C" : 256,
      "bottom" : "conv_pw_13_relu_output",
      "weights" : {

      },
      "Nx" : 2,
      "pad_mode" : 1,
      "deconv_out_width" : 14,
      "pad_value" : 0,
      "Ny" : 2,
      "n_parallel" : 1
    },
    {
      "weights" : {

      },
      "debug_info" : "concatenate_46",
      "top" : "concatenate_46_output",
      "type" : "concat",
      "name" : "concatenate_46",
      "bottom" : "conv2d_transpose_37_output,conv_pw_11_relu_output"
    },
    {
      "pad_r" : 0,
      "fused_relu" : 1,
      "fused_tanh" : 0,
      "debug_info" : "conv_dw_14",
      "pad_fill_mode" : 0,
      "pad_b" : 0,
      "pad_l" : 0,
      "top" : "conv_dw_14_relu_output_relu",
      "blob_weights" : 115,
      "K" : 512,
      "blob_biases" : 113,
      "name" : "conv_dw_14",
      "has_batch_norm" : 0,
      "type" : "convolution",
      "n_groups" : 512,
      "pad_t" : 0,
      "has_biases" : 1,
      "C" : 512,
      "bottom" : "concatenate_46_output",
      "weights" : {

      },
      "Nx" : 3,
      "pad_mode" : 1,
      "pad_value" : 0,
      "Ny" : 3,
      "n_parallel" : 1
    },
    {
      "alpha" : -1,
      "bottom" : "conv_dw_14_relu_output_relu",
      "weights" : {

      },
      "mode" : 6,
      "debug_info" : "conv_dw_14_relu__neg__",
      "top" : "conv_dw_14_relu_output_relu_neg",
      "type" : "activation",
      "name" : "conv_dw_14_relu__neg__",
      "beta" : 0
    },
    {
      "bottom" : "conv_dw_14_relu_output_relu_neg",
      "alpha" : -6,
      "operation" : 25,
      "weights" : {

      },
      "fused_relu" : 0,
      "debug_info" : "conv_dw_14_relu__clip__",
      "top" : "conv_dw_14_relu_output_relu_clip",
      "type" : "elementwise",
      "name" : "conv_dw_14_relu__clip__",
      "beta" : 0
    },
    {
      "alpha" : -1,
      "bottom" : "conv_dw_14_relu_output_relu_clip",
      "weights" : {

      },
      "mode" : 6,
      "debug_info" : "conv_dw_14_relu_neg2",
      "top" : "conv_dw_14_relu_output",
      "type" : "activation",
      "name" : "conv_dw_14_relu_neg2",
      "beta" : 0
    },
    {
      "pad_r" : 0,
      "fused_relu" : 1,
      "fused_tanh" : 0,
      "debug_info" : "conv_pw_14",
      "pad_fill_mode" : 0,
      "pad_b" : 0,
      "pad_l" : 0,
      "top" : "conv_pw_14_relu_output_relu",
      "blob_weights" : 119,
      "K" : 512,
      "blob_biases" : 117,
      "name" : "conv_pw_14",
      "has_batch_norm" : 0,
      "type" : "convolution",
      "n_groups" : 1,
      "pad_t" : 0,
      "has_biases" : 1,
      "C" : 128,
      "bottom" : "conv_dw_14_relu_output",
      "weights" : {

      },
      "Nx" : 1,
      "pad_mode" : 1,
      "pad_value" : 0,
      "Ny" : 1,
      "n_parallel" : 1
    },
    {
      "alpha" : -1,
      "bottom" : "conv_pw_14_relu_output_relu",
      "weights" : {

      },
      "mode" : 6,
      "debug_info" : "conv_pw_14_relu__neg__",
      "top" : "conv_pw_14_relu_output_relu_neg",
      "type" : "activation",
      "name" : "conv_pw_14_relu__neg__",
      "beta" : 0
    },
    {
      "bottom" : "conv_pw_14_relu_output_relu_neg",
      "alpha" : -6,
      "operation" : 25,
      "weights" : {

      },
      "fused_relu" : 0,
      "debug_info" : "conv_pw_14_relu__clip__",
      "top" : "conv_pw_14_relu_output_relu_clip",
      "type" : "elementwise",
      "name" : "conv_pw_14_relu__clip__",
      "beta" : 0
    },
    {
      "alpha" : -1,
      "bottom" : "conv_pw_14_relu_output_relu_clip",
      "weights" : {

      },
      "mode" : 6,
      "debug_info" : "conv_pw_14_relu_neg2",
      "top" : "conv_pw_14_relu_output",
      "type" : "activation",
      "name" : "conv_pw_14_relu_neg2",
      "beta" : 0
    },
    {
      "pad_r" : 0,
      "fused_relu" : 0,
      "fused_tanh" : 0,
      "debug_info" : "conv2d_transpose_38",
      "pad_fill_mode" : 0,
      "pad_b" : 0,
      "pad_l" : 0,
      "top" : "conv2d_transpose_38_output",
      "blob_weights" : 123,
      "K" : 128,
      "blob_biases" : 121,
      "stride_x" : 2,
      "name" : "conv2d_transpose_38",
      "deconv_out_height" : 28,
      "has_batch_norm" : 0,
      "type" : "deconvolution",
      "n_groups" : 1,
      "pad_t" : 0,
      "stride_y" : 2,
      "has_biases" : 1,
      "C" : 128,
      "bottom" : "conv_pw_14_relu_output",
      "weights" : {

      },
      "Nx" : 2,
      "pad_mode" : 1,
      "deconv_out_width" : 28,
      "pad_value" : 0,
      "Ny" : 2,
      "n_parallel" : 1
    },
    {
      "weights" : {

      },
      "debug_info" : "concatenate_47",
      "top" : "concatenate_47_output",
      "type" : "concat",
      "name" : "concatenate_47",
      "bottom" : "conv2d_transpose_38_output,conv_pw_5_relu_output"
    },
    {
      "pad_r" : 0,
      "fused_relu" : 1,
      "fused_tanh" : 0,
      "debug_info" : "conv_dw_15",
      "pad_fill_mode" : 0,
      "pad_b" : 0,
      "pad_l" : 0,
      "top" : "conv_dw_15_relu_output_relu",
      "blob_weights" : 127,
      "K" : 256,
      "blob_biases" : 125,
      "name" : "conv_dw_15",
      "has_batch_norm" : 0,
      "type" : "convolution",
      "n_groups" : 256,
      "pad_t" : 0,
      "has_biases" : 1,
      "C" : 256,
      "bottom" : "concatenate_47_output",
      "weights" : {

      },
      "Nx" : 3,
      "pad_mode" : 1,
      "pad_value" : 0,
      "Ny" : 3,
      "n_parallel" : 1
    },
    {
      "alpha" : -1,
      "bottom" : "conv_dw_15_relu_output_relu",
      "weights" : {

      },
      "mode" : 6,
      "debug_info" : "conv_dw_15_relu__neg__",
      "top" : "conv_dw_15_relu_output_relu_neg",
      "type" : "activation",
      "name" : "conv_dw_15_relu__neg__",
      "beta" : 0
    },
    {
      "bottom" : "conv_dw_15_relu_output_relu_neg",
      "alpha" : -6,
      "operation" : 25,
      "weights" : {

      },
      "fused_relu" : 0,
      "debug_info" : "conv_dw_15_relu__clip__",
      "top" : "conv_dw_15_relu_output_relu_clip",
      "type" : "elementwise",
      "name" : "conv_dw_15_relu__clip__",
      "beta" : 0
    },
    {
      "alpha" : -1,
      "bottom" : "conv_dw_15_relu_output_relu_clip",
      "weights" : {

      },
      "mode" : 6,
      "debug_info" : "conv_dw_15_relu_neg2",
      "top" : "conv_dw_15_relu_output",
      "type" : "activation",
      "name" : "conv_dw_15_relu_neg2",
      "beta" : 0
    },
    {
      "pad_r" : 0,
      "fused_relu" : 1,
      "fused_tanh" : 0,
      "debug_info" : "conv_pw_15",
      "pad_fill_mode" : 0,
      "pad_b" : 0,
      "pad_l" : 0,
      "top" : "conv_pw_15_relu_output_relu",
      "blob_weights" : 131,
      "K" : 256,
      "blob_biases" : 129,
      "name" : "conv_pw_15",
      "has_batch_norm" : 0,
      "type" : "convolution",
      "n_groups" : 1,
      "pad_t" : 0,
      "has_biases" : 1,
      "C" : 64,
      "bottom" : "conv_dw_15_relu_output",
      "weights" : {

      },
      "Nx" : 1,
      "pad_mode" : 1,
      "pad_value" : 0,
      "Ny" : 1,
      "n_parallel" : 1
    },
    {
      "alpha" : -1,
      "bottom" : "conv_pw_15_relu_output_relu",
      "weights" : {

      },
      "mode" : 6,
      "debug_info" : "conv_pw_15_relu__neg__",
      "top" : "conv_pw_15_relu_output_relu_neg",
      "type" : "activation",
      "name" : "conv_pw_15_relu__neg__",
      "beta" : 0
    },
    {
      "bottom" : "conv_pw_15_relu_output_relu_neg",
      "alpha" : -6,
      "operation" : 25,
      "weights" : {

      },
      "fused_relu" : 0,
      "debug_info" : "conv_pw_15_relu__clip__",
      "top" : "conv_pw_15_relu_output_relu_clip",
      "type" : "elementwise",
      "name" : "conv_pw_15_relu__clip__",
      "beta" : 0
    },
    {
      "alpha" : -1,
      "bottom" : "conv_pw_15_relu_output_relu_clip",
      "weights" : {

      },
      "mode" : 6,
      "debug_info" : "conv_pw_15_relu_neg2",
      "top" : "conv_pw_15_relu_output",
      "type" : "activation",
      "name" : "conv_pw_15_relu_neg2",
      "beta" : 0
    },
    {
      "pad_r" : 0,
      "fused_relu" : 0,
      "fused_tanh" : 0,
      "debug_info" : "conv2d_transpose_39",
      "pad_fill_mode" : 0,
      "pad_b" : 0,
      "pad_l" : 0,
      "top" : "conv2d_transpose_39_output",
      "blob_weights" : 135,
      "K" : 64,
      "blob_biases" : 133,
      "stride_x" : 2,
      "name" : "conv2d_transpose_39",
      "deconv_out_height" : 56,
      "has_batch_norm" : 0,
      "type" : "deconvolution",
      "n_groups" : 1,
      "pad_t" : 0,
      "stride_y" : 2,
      "has_biases" : 1,
      "C" : 64,
      "bottom" : "conv_pw_15_relu_output",
      "weights" : {

      },
      "Nx" : 2,
      "pad_mode" : 1,
      "deconv_out_width" : 56,
      "pad_value" : 0,
      "Ny" : 2,
      "n_parallel" : 1
    },
    {
      "weights" : {

      },
      "debug_info" : "concatenate_48",
      "top" : "concatenate_48_output",
      "type" : "concat",
      "name" : "concatenate_48",
      "bottom" : "conv2d_transpose_39_output,conv_pw_3_relu_output"
    },
    {
      "pad_r" : 0,
      "fused_relu" : 1,
      "fused_tanh" : 0,
      "debug_info" : "conv_dw_16",
      "pad_fill_mode" : 0,
      "pad_b" : 0,
      "pad_l" : 0,
      "top" : "conv_dw_16_relu_output_relu",
      "blob_weights" : 139,
      "K" : 128,
      "blob_biases" : 137,
      "name" : "conv_dw_16",
      "has_batch_norm" : 0,
      "type" : "convolution",
      "n_groups" : 128,
      "pad_t" : 0,
      "has_biases" : 1,
      "C" : 128,
      "bottom" : "concatenate_48_output",
      "weights" : {

      },
      "Nx" : 3,
      "pad_mode" : 1,
      "pad_value" : 0,
      "Ny" : 3,
      "n_parallel" : 1
    },
    {
      "alpha" : -1,
      "bottom" : "conv_dw_16_relu_output_relu",
      "weights" : {

      },
      "mode" : 6,
      "debug_info" : "conv_dw_16_relu__neg__",
      "top" : "conv_dw_16_relu_output_relu_neg",
      "type" : "activation",
      "name" : "conv_dw_16_relu__neg__",
      "beta" : 0
    },
    {
      "bottom" : "conv_dw_16_relu_output_relu_neg",
      "alpha" : -6,
      "operation" : 25,
      "weights" : {

      },
      "fused_relu" : 0,
      "debug_info" : "conv_dw_16_relu__clip__",
      "top" : "conv_dw_16_relu_output_relu_clip",
      "type" : "elementwise",
      "name" : "conv_dw_16_relu__clip__",
      "beta" : 0
    },
    {
      "alpha" : -1,
      "bottom" : "conv_dw_16_relu_output_relu_clip",
      "weights" : {

      },
      "mode" : 6,
      "debug_info" : "conv_dw_16_relu_neg2",
      "top" : "conv_dw_16_relu_output",
      "type" : "activation",
      "name" : "conv_dw_16_relu_neg2",
      "beta" : 0
    },
    {
      "pad_r" : 0,
      "fused_relu" : 1,
      "fused_tanh" : 0,
      "debug_info" : "conv_pw_16",
      "pad_fill_mode" : 0,
      "pad_b" : 0,
      "pad_l" : 0,
      "top" : "conv_pw_16_relu_output_relu",
      "blob_weights" : 143,
      "K" : 128,
      "blob_biases" : 141,
      "name" : "conv_pw_16",
      "has_batch_norm" : 0,
      "type" : "convolution",
      "n_groups" : 1,
      "pad_t" : 0,
      "has_biases" : 1,
      "C" : 32,
      "bottom" : "conv_dw_16_relu_output",
      "weights" : {

      },
      "Nx" : 1,
      "pad_mode" : 1,
      "pad_value" : 0,
      "Ny" : 1,
      "n_parallel" : 1
    },
    {
      "alpha" : -1,
      "bottom" : "conv_pw_16_relu_output_relu",
      "weights" : {

      },
      "mode" : 6,
      "debug_info" : "conv_pw_16_relu__neg__",
      "top" : "conv_pw_16_relu_output_relu_neg",
      "type" : "activation",
      "name" : "conv_pw_16_relu__neg__",
      "beta" : 0
    },
    {
      "bottom" : "conv_pw_16_relu_output_relu_neg",
      "alpha" : -6,
      "operation" : 25,
      "weights" : {

      },
      "fused_relu" : 0,
      "debug_info" : "conv_pw_16_relu__clip__",
      "top" : "conv_pw_16_relu_output_relu_clip",
      "type" : "elementwise",
      "name" : "conv_pw_16_relu__clip__",
      "beta" : 0
    },
    {
      "alpha" : -1,
      "bottom" : "conv_pw_16_relu_output_relu_clip",
      "weights" : {

      },
      "mode" : 6,
      "debug_info" : "conv_pw_16_relu_neg2",
      "top" : "conv_pw_16_relu_output",
      "type" : "activation",
      "name" : "conv_pw_16_relu_neg2",
      "beta" : 0
    },
    {
      "pad_r" : 0,
      "fused_relu" : 0,
      "fused_tanh" : 0,
      "debug_info" : "conv2d_transpose_40",
      "pad_fill_mode" : 0,
      "pad_b" : 0,
      "pad_l" : 0,
      "top" : "conv2d_transpose_40_output",
      "blob_weights" : 147,
      "K" : 32,
      "blob_biases" : 145,
      "stride_x" : 2,
      "name" : "conv2d_transpose_40",
      "deconv_out_height" : 112,
      "has_batch_norm" : 0,
      "type" : "deconvolution",
      "n_groups" : 1,
      "pad_t" : 0,
      "stride_y" : 2,
      "has_biases" : 1,
      "C" : 32,
      "bottom" : "conv_pw_16_relu_output",
      "weights" : {

      },
      "Nx" : 2,
      "pad_mode" : 1,
      "deconv_out_width" : 112,
      "pad_value" : 0,
      "Ny" : 2,
      "n_parallel" : 1
    },
    {
      "weights" : {

      },
      "debug_info" : "concatenate_49",
      "top" : "concatenate_49_output",
      "type" : "concat",
      "name" : "concatenate_49",
      "bottom" : "conv2d_transpose_40_output,conv_pw_1_relu_output"
    },
    {
      "pad_r" : 0,
      "fused_relu" : 1,
      "fused_tanh" : 0,
      "debug_info" : "conv_dw_17",
      "pad_fill_mode" : 0,
      "pad_b" : 0,
      "pad_l" : 0,
      "top" : "conv_dw_17_relu_output_relu",
      "blob_weights" : 151,
      "K" : 64,
      "blob_biases" : 149,
      "name" : "conv_dw_17",
      "has_batch_norm" : 0,
      "type" : "convolution",
      "n_groups" : 64,
      "pad_t" : 0,
      "has_biases" : 1,
      "C" : 64,
      "bottom" : "concatenate_49_output",
      "weights" : {

      },
      "Nx" : 3,
      "pad_mode" : 1,
      "pad_value" : 0,
      "Ny" : 3,
      "n_parallel" : 1
    },
    {
      "alpha" : -1,
      "bottom" : "conv_dw_17_relu_output_relu",
      "weights" : {

      },
      "mode" : 6,
      "debug_info" : "conv_dw_17_relu__neg__",
      "top" : "conv_dw_17_relu_output_relu_neg",
      "type" : "activation",
      "name" : "conv_dw_17_relu__neg__",
      "beta" : 0
    },
    {
      "bottom" : "conv_dw_17_relu_output_relu_neg",
      "alpha" : -6,
      "operation" : 25,
      "weights" : {

      },
      "fused_relu" : 0,
      "debug_info" : "conv_dw_17_relu__clip__",
      "top" : "conv_dw_17_relu_output_relu_clip",
      "type" : "elementwise",
      "name" : "conv_dw_17_relu__clip__",
      "beta" : 0
    },
    {
      "alpha" : -1,
      "bottom" : "conv_dw_17_relu_output_relu_clip",
      "weights" : {

      },
      "mode" : 6,
      "debug_info" : "conv_dw_17_relu_neg2",
      "top" : "conv_dw_17_relu_output",
      "type" : "activation",
      "name" : "conv_dw_17_relu_neg2",
      "beta" : 0
    },
    {
      "pad_r" : 0,
      "fused_relu" : 1,
      "fused_tanh" : 0,
      "debug_info" : "conv_pw_17",
      "pad_fill_mode" : 0,
      "pad_b" : 0,
      "pad_l" : 0,
      "top" : "conv_pw_17_relu_output_relu",
      "blob_weights" : 155,
      "K" : 64,
      "blob_biases" : 153,
      "name" : "conv_pw_17",
      "has_batch_norm" : 0,
      "type" : "convolution",
      "n_groups" : 1,
      "pad_t" : 0,
      "has_biases" : 1,
      "C" : 16,
      "bottom" : "conv_dw_17_relu_output",
      "weights" : {

      },
      "Nx" : 1,
      "pad_mode" : 1,
      "pad_value" : 0,
      "Ny" : 1,
      "n_parallel" : 1
    },
    {
      "alpha" : -1,
      "bottom" : "conv_pw_17_relu_output_relu",
      "weights" : {

      },
      "mode" : 6,
      "debug_info" : "conv_pw_17_relu__neg__",
      "top" : "conv_pw_17_relu_output_relu_neg",
      "type" : "activation",
      "name" : "conv_pw_17_relu__neg__",
      "beta" : 0
    },
    {
      "bottom" : "conv_pw_17_relu_output_relu_neg",
      "alpha" : -6,
      "operation" : 25,
      "weights" : {

      },
      "fused_relu" : 0,
      "debug_info" : "conv_pw_17_relu__clip__",
      "top" : "conv_pw_17_relu_output_relu_clip",
      "type" : "elementwise",
      "name" : "conv_pw_17_relu__clip__",
      "beta" : 0
    },
    {
      "alpha" : -1,
      "bottom" : "conv_pw_17_relu_output_relu_clip",
      "weights" : {

      },
      "mode" : 6,
      "debug_info" : "conv_pw_17_relu_neg2",
      "top" : "conv_pw_17_relu_output",
      "type" : "activation",
      "name" : "conv_pw_17_relu_neg2",
      "beta" : 0
    },
    {
      "weights" : {

      },
      "debug_info" : "concatenate_50",
      "top" : "concatenate_50_output",
      "type" : "concat",
      "name" : "concatenate_50",
      "bottom" : "conv_pw_17_relu_output,conv_0_relu_output"
    },
    {
      "pad_r" : 0,
      "fused_relu" : 1,
      "fused_tanh" : 0,
      "debug_info" : "conv_18",
      "pad_fill_mode" : 0,
      "pad_b" : 0,
      "pad_l" : 0,
      "top" : "conv_18_relu_output_relu",
      "blob_weights" : 159,
      "K" : 32,
      "blob_biases" : 157,
      "name" : "conv_18",
      "has_batch_norm" : 0,
      "type" : "convolution",
      "n_groups" : 1,
      "pad_t" : 0,
      "has_biases" : 1,
      "C" : 8,
      "bottom" : "concatenate_50_output",
      "weights" : {

      },
      "Nx" : 3,
      "pad_mode" : 1,
      "pad_value" : 0,
      "Ny" : 3,
      "n_parallel" : 1
    },
    {
      "alpha" : -1,
      "bottom" : "conv_18_relu_output_relu",
      "weights" : {

      },
      "mode" : 6,
      "debug_info" : "conv_18_relu__neg__",
      "top" : "conv_18_relu_output_relu_neg",
      "type" : "activation",
      "name" : "conv_18_relu__neg__",
      "beta" : 0
    },
    {
      "bottom" : "conv_18_relu_output_relu_neg",
      "alpha" : -6,
      "operation" : 25,
      "weights" : {

      },
      "fused_relu" : 0,
      "debug_info" : "conv_18_relu__clip__",
      "top" : "conv_18_relu_output_relu_clip",
      "type" : "elementwise",
      "name" : "conv_18_relu__clip__",
      "beta" : 0
    },
    {
      "alpha" : -1,
      "bottom" : "conv_18_relu_output_relu_clip",
      "weights" : {

      },
      "mode" : 6,
      "debug_info" : "conv_18_relu_neg2",
      "top" : "conv_18_relu_output",
      "type" : "activation",
      "name" : "conv_18_relu_neg2",
      "beta" : 0
    },
    {
      "top" : "up_sampling2d_10_output",
      "use_fractional_scale_factors" : false,
      "weights" : {

      },
      "fractional_scaling_factor_y" : 1,
      "type" : "upsample",
      "scaling_factor_x" : 2,
      "mode" : 0,
      "align_corners" : 0,
      "bottom" : "conv_18_relu_output",
      "debug_info" : "up_sampling2d_10",
      "fractional_scaling_factor_x" : 1,
      "is_legacy_mode" : 1,
      "name" : "up_sampling2d_10",
      "scaling_factor_y" : 2
    },
    {
      "pad_r" : 0,
      "fused_relu" : 0,
      "fused_tanh" : 0,
      "debug_info" : "conv2d_10",
      "pad_fill_mode" : 0,
      "pad_b" : 0,
      "pad_l" : 0,
      "top" : "conv2d_10_output",
      "blob_weights" : 163,
      "K" : 8,
      "blob_biases" : 161,
      "name" : "conv2d_10",
      "has_batch_norm" : 0,
      "type" : "convolution",
      "n_groups" : 1,
      "pad_t" : 0,
      "has_biases" : 1,
      "C" : 1,
      "bottom" : "up_sampling2d_10_output",
      "weights" : {

      },
      "Nx" : 3,
      "pad_mode" : 1,
      "pad_value" : 0,
      "Ny" : 3,
      "n_parallel" : 1
    },
    {
      "bottom" : "conv2d_10_output",
      "weights" : {

      },
      "mode" : 3,
      "debug_info" : "activation_10",
      "top" : "output1",
      "type" : "activation",
      "name" : "activation_10",
      "attributes" : {
        "is_output" : 1
      }
    }
  ],
  "transform_params" : {
    "image" : {
      "bias_a" : 0,
      "bias_g" : 0,
      "bias_r" : 0,
      "bias_b" : 0,
      "center_mean" : 0,
      "is_network_bgr" : 0,
      "scale" : 1
    }
  },
  "storage" : "model.espresso.weights",
  "metadata_in_weights" : [

  ],
  "properties" : {

  },
  "analyses" : {

  },
  "format_version" : 200
}